checkpoint.pth (torch_old, 28399 bytes, 6 tensors)

fc1.weight f4 [64, 37]
-0.18236528 -0.2863582 -0.13995327 -0.25371352 -0.12394239 -0.15276057 0.012163897 -0.052839253
-0.06829739 0.18767077 -0.3090726 -0.39727104 0.07508296 -0.49529126 -0.35808745 -0.07765019
-0.17309338 -0.11392435 -0.14631318 -0.15531002 -0.0032683508 -0.11259598 0.044127278 -0.23035395
-0.41745782 -0.22156614 -0.032931127 -0.3789801 0.057081055 -0.14897877 -0.119305246 -0.021511236
-0.33472708 -0.24527133 -0.36205322 -0.09312856 -0.004288607 0.05400782 -0.07095195 -0.050316475
-0.1770924 -0.32069024 -0.06278054 -0.26288772 -0.20853814 -0.090167984 -0.40051726 0.12956077
-0.17270084 -0.25933793 -0.011344495 0.028865764 0.011407046 -0.053634748 -0.23450984 -0.09192631
-0.29809913 -0.20297317 -0.19989908 -0.38860273 0.08354267 -0.28155464 -0.16672204 0.17846087
-0.1841961 -0.14452691 -0.2144128 -0.07763692 0.10709205 0.07152001 -0.3465649 -0.3442249
0.033497475 -0.0129185375 0.07489014 0.093774036 -0.012430783 -0.16306265 -0.07122985 -0.10691768
-0.26038796 0.014236498 0.09986802 -0.31195804 -0.12523387 -0.097430095 -0.024089493 -0.24663132
-0.02404407 -0.20797531 0.050530743 -0.036675807 0.16021843 0.015983958 -0.14095555 -0.19032511
0.046505615 -0.11932921 -0.24334201 -0.14025332 0.13362452 0.030908838 -0.17638318 -0.034369063
-0.137821 -0.1378649 -0.18341227 -0.25857913 -0.17064147 0.0025163568 -0.011406481 0.03822747
-0.45847422 -0.03402212 -0.14000314 -0.645803 -0.12811829 -0.31761402 0.29106045 -0.15088533
-0.3138347 -0.1045578 -0.2213377 -0.040845506 -0.52984095 -0.46492872 -0.1357162 -0.32790068
-0.6805655 -0.14371352 -0.65282077 0.016161067 -0.2041716 -0.17040133 -0.44094312 -0.65396523
-0.016145634 -0.17274867 -0.1976308 -0.2365156 -0.06288864 -0.06389786 -0.05224868 -0.17151566
-0.3603273 -0.33392596 0.3035137 -0.067442775 -0.08390299 -0.18591966 -0.61868954 -0.48872846
-0.52307016 -0.56776947 0.16895683 -0.006950188 -0.43565425 -0.027788056 -0.0989893 -0.65346587
-0.3289259 -0.025337799 -0.3650656 -0.6249815 0.115297854 -0.27496126 -0.6460826 0.099699415
-0.5999347 -0.21256486 0.074015975 -0.47769022 -0.0662469 -0.34683937 -0.6598567 -0.25951347
-0.5540205 -0.6786251 -0.056964498 -0.3669453 -0.16276973 -0.25156578 0.064125724 0.25274822
-0.0350884 -0.022010626 -0.13170151 -0.35291258 -0.054730594 -0.5161655 -0.0060231537 -0.13740548
-0.28692636 -0.061825383 -0.5536872 -0.101367645 -0.30029574 -0.18110484 -0.19365795 -0.27956435
0.06513691 -0.32033566 -0.37808093 -0.41434413 -0.71192765 0.084797844 -0.29012564 0.00068805163
-0.36307013 -0.20495637 -0.18322207 -0.28166878 -0.11559632 -0.12533052 -0.6756012 -0.07727308
-0.20612215 -0.2615664 -0.07425855 -0.45554957 0.18752939 -0.0299643 -0.019514853 0.17403635
0.107601844 0.001503326 0.04572971 0.06357759 0.20425926 0.09287295 0.42953056 0.22648458
0.11544439 0.21529976 0.13409573 0.10607545 0.06402239 0.095282 0.11976778 0.0993406
0.16037078 0.01717356 0.071935594 0.241892 0.14117454 0.16153249 0.10820854 -0.033435617
0.07511047 0.049554054 0.20730186 0.08214594 0.61038846 -0.98973185 -1.0291497 -1.1714476
00000000: f7bd 3abe 8b9d 92be e94f 0fbe bde6 81be
00000010: 82d5 fdbd 446d 1cbe 154b 473c f96d 58bd
00000020: 81df 8bbd c42c 403e c43e 9ebe 1c67 cbbe
00000030: 18c5 993d d196 fdbe 3d57 b7be 1007 9fbd
00000040: 643f 31be 2b51 e9bd 1fd3 15be 9709 1fbe
00000050: d431 56bb b998 e6bd cebe 343d e8e1 6bbe
00000060: 08bd d5be 3ce2 62be cae2 06bd ae09 c2be
00000070: d3cd 693d e48d 18be 4f56 f4bd 5538 b0bc
00000080: 5961 abbe 6828 7bbe 0a5f b9be 30ba bebd
00000090: 7187 8cbb 4e37 5d3d 424f 91bd a618 4ebd
000000a0: b657 35be 8331 a4be 1593 80bd 3899 86be
000000b0: 068b 55be fea9 b8bd 9910 cdbe 94ab 043e
000000c0: 7dd8 30be f1c7 84be 43de 39bc e577 ec3c
000000d0: 9ee4 3a3c 1cb0 5bbd 5923 70be dc43 bcbd
000000e0: 73a0 98be 33d8 4fbe 58b2 4cbe f0f6 c6be
000000f0: 6b18 ab3d ee27 90be 2fb9 2abe 72be 363e
00000100: e79d 3cbe ddfe 13be 078f 5bbe 1b00 9fbd
00000110: 1453 db3d 1579 923d f470 b1be 3f3e b0be
00000120: a634 093d 46a8 53bc 0060 993d 9a0c c03d
00000130: 7caa 4bbc e5f9 26be f5e0 91bd a8f7 dabd
00000140: 9251 85be 3340 693c 9b87 cc3d f7b8 9fbe
00000150: 4f3d 00be 6e89 c7bd 5457 c5bc ec8c 7cbe
00000160: 12f8 c4bc 7bf7 54be 53f9 4e3d 5f39 16bd
00000170: 4d10 243e caf0 823c a756 10be 96e4 42be
00000180: ac7c 3e3d df62 f4bd a62e 79be 919e 0fbe
00000190: ded4 083e 8834 fd3c cb9d 34be 93c6 0cbd
000001a0: f320 0dbe 752c 0dbe 6dd0 3bbe 7c64 84be
000001b0: a3bc 2ebe 76e9 243b 40e2 3abc 6894 1c3d
000001c0: 22bd eabe c75a 0bbd fc5c 0fbe 5853 25bf
000001d0: 7131 03be 4e9e a2be e005 953e af81 1abe
000001e0: f1ae a0be 6622 d6bd 5aa6 62be 9e4d 27bd
000001f0: a8a3 07bf 230b eebe 30f9 0abe 99e2 a7be
00000200: 8a39 2ebf a329 13be 431f 27bf 3764 843c
00000210: 5c12 51be b07d 2ebe 4cc3 e1be 446a 27bf
00000220: d943 84bc 07e5 30be ba5f 4abe 2531 72be
00000230: c2cb 80bd e2dc 82bd b602 56bd cda1 2fbe
00000240: d27c b8be 58f8 aabe 2666 9b3e 701f 8abd
00000250: 55d5 abbd b961 3ebe 7062 1ebf 9e3a fabe
00000260: ede7 05bf 5759 11bf 0503 2d3e 67be e3bb
00000270: 130e dfbe c7a3 e3bc e7ba cabd 8a49 27bf
00000280: fa68 a8be 3791 cfbc e1e9 babe cafe 1fbf
00000290: 4821 ec3d b9c7 8cbe ab65 25bf 352f cc3d
000002a0: 5295 19bf 9aaa 59be b095 973d d093 f4be
000002b0: 74ac 87bd ee94 b1be 5eec 28bf f3de 84be
000002c0: 4ad4 0dbf 60ba 2dbf 9b53 69bd 41e0 bbbe
000002d0: 1cad 26be 3bcd 80be 5954 833d 3768 813e
000002e0: dbb8 0fbd a14f b4bc c3dc 06be f5b0 b4be
000002f0: 302d 60bd 6c23 04bf e05d c5bb 06b4 0cbe
00000300: 03e8 92be 9d3c 7dbd 72be 0dbf d799 cfbd
00000310: 5dc0 99be 8c73 39be 454e 46be 0f23 8fbe
00000320: 8066 853d 0903 a4be d393 c1be ea24 d4be
00000330: e440 36bf 7eaa ad3d 598b 94be 5d5e 343a
00000340: 54e4 b9be 15e0 51be 919e 3bbe e436 90be
00000350: c3bd ecbd a556 00be 33f4 2cbf 5941 9ebd
00000360: af11 53be 08ec 85be de14 98bd cb3d e9be
00000370: b407 403e b177 f5bc 9ddd 9fbc 9636 323e
00000380: 5b5e dc3d 400b c53a 144f 3b3d f834 823d
00000390: 5729 513e 2c34 be3d 6eeb db3e 93eb 673e
000003a0: 1c6e ec3d 8a77 5c3e 6450 093e 163e d93d
000003b0: 2c1e 833d 3623 c33d cf48 f53d 1673 cb3d
000003c0: 3d38 243e 91af 8c3c f852 933d 89b2 773e
000003d0: 0f90 103e c668 253e 709c dd3d c9f3 08bd
000003e0: 85d3 993d 31f9 4a3d f046 543e 213c a83d
000003f0: 6b42 1c3f 115f 7dbf 2dbb 83bf fff1 95bf

fc1.bias f4 [64]
-0.15913923 -0.2241426 -0.23431359 -0.352341 -0.024054315 -0.28992805 -0.030029554 -0.21015066
-0.30830184 -0.24935694 -0.24113674 -0.00023257168 -0.092326574 0.07365839 -0.34683913 -0.27257186
-0.24934463 -0.2294597 -0.21784122 -0.342496 -0.09968356 -0.17233604 -0.15054587 -0.14932542
-0.29374808 -0.11325991 -0.041118965 -0.2829153 -0.09852245 -0.15731972 -0.17777374 -0.27647126
0.13214721 -0.33515012 -0.2643623 -0.11912068 -0.24907467 -0.23758458 -0.2939694 -0.3282353
-0.47896448 -0.2525927 -0.1911835 0.1189976 0.22161643 -0.33696973 -0.19390683 -0.28981847
-0.31045327 -0.23616426 0.11439488 -0.18924305 -0.12536654 -0.34531528 -0.32502285 -0.33873352
-0.16359456 -0.29664722 -0.32219937 -0.25334275 -0.3164881 -0.22399811 0.07847935 -0.20232573
00000000: 65f5 22be a385 65be e7ef 6fbe 0a66 b4be
00000010: 8e0d c5bc 7371 94be 8a00 f6bc bc31 57be
00000020: bdd9 9dbe 6d57 7fbe 8dec 76be 7cde 73b9
00000030: b715 bdbd 36da 963d e694 b1be 8a8e 8bbe
00000040: 3354 7fbe 7cf7 6abe c511 5fbe a35b afbe
00000050: e526 ccbd dc78 30be b228 1abe c3e8 18be
00000060: 2666 96be d0f4 e7bd 5c6c 28bd 46da 90be
00000070: 23c6 c9bd 6c18 21be 520a 36be a48d 8dbe
00000080: 9951 073e cc98 abbe 7f5a 87be 8bf5 f3bd
00000090: 6e0d 7fbe 5f49 73be 2883 96be 750e a8be
000000a0: d53a f5be d553 81be 9cc5 43be 04b5 f33d
000000b0: 6bef 623e 4c87 acbe 838f 46be 1663 94be
000000c0: bbf3 9ebe 0bd5 71be dd47 ea3d eec8 41be
000000d0: 1660 00be 2acd b0be 6569 a6be 7b6e adbe
000000e0: 5585 27be 25e2 97be 51f7 a4be 24b6 81be
000000f0: ba0a a2be c35f 65be c8b9 a03d 7a2e 4fbe

fc2.weight f4 [64, 64]
-0.04800095 -0.091776304 0.21802436 0.4023221 -0.13151659 -0.17770834 -0.17680533 -0.505323
0.29102862 -0.27239668 0.064281754 -0.20377114 -0.18230033 -0.28540686 -0.05457324 -0.048188195
-0.1512753 -0.24370304 -0.018070625 -0.13944586 -0.33153757 -0.26556388 0.0062753293 0.060544368
-0.15539953 -0.031569332 -0.25925133 -0.102569014 -0.050001536 -0.2718511 -0.0057343794 0.0019585055
-0.25579312 -0.18659349 -0.25010458 0.0104748355 -0.17781413 0.14515604 0.17998028 -0.10014914
-0.37066516 -0.1093721 0.05051993 0.56035733 -0.15116826 -0.23913786 -0.16432124 -0.091279134
-0.008712323 -0.16459382 -0.14698637 -0.068978556 -0.23981275 -0.36307165 0.07271865 0.13734163
-0.2033696 -0.21951883 -0.34378606 0.023464045 0.1528911 0.039501544 -0.1885634 0.012633452
-0.13687272 0.19741532 -0.20534012 -0.08361012 0.027058564 0.17251618 -0.04492335 0.094772495
-0.0074303052 -0.007867112 -0.39810002 0.3967773 -0.1999118 0.06795104 0.08644943 0.08326299
-0.0077465638 0.05115297 -0.18479368 -0.044287145 -0.09141899 -0.0745837 0.036801655 -0.19309972
0.023602325 0.036832668 -0.16631585 -0.0015897936 0.08289135 -0.2019432 0.05341692 -0.08540239
-0.42754078 0.09655864 -0.078627706 -0.07340669 -0.08006308 0.2563303 0.060791273 -0.060515016
-0.1359933 -0.098053224 -0.07650883 -0.34067905 0.041708 -0.19664508 -0.15398869 0.045382433
-0.2111993 -0.021574212 0.15578848 -0.122459926 -0.0226631 0.06190167 -0.066594034 0.29371163
-0.08594312 -0.2862197 0.15792003 0.07082811 0.036746286 0.14786682 0.02228662 -0.11922915
0.08770873 -0.14739303 0.08941042 -0.1475347 0.38831273 0.11059969 -0.4614537 0.14360002
0.035524182 -1.376925 0.26471016 -0.24695294 -0.109013475 -0.24111071 0.2856691 -0.05015081
-0.11006712 0.0764268 -0.03661914 -0.03510884 -0.26374063 0.043956008 -0.046533316 -0.28918004
-0.038412858 0.048010033 -0.002473426 0.09622544 -0.027219376 0.053980056 0.028792292 0.0011192331
-0.32144803 -0.26579997 -0.100118324 0.07337651 0.122919016 0.09683154 -0.15182184 0.10773939
0.08773257 -0.024864065 -0.10875775 -0.15118031 -0.44230276 -0.010918737 0.067173734 -0.024601957
-0.06884715 -0.26435933 -0.043567106 -0.020694535 -0.1291869 0.19964342 -0.14876543 0.054577373
0.031022208 -0.29446557 0.14437164 0.13064304 -0.23091638 0.028567338 0.057476666 0.10984673
-0.09455127 -0.1769381 0.07306284 -0.18145144 -0.10096561 -0.05437733 -0.28023088 -0.07516395
-0.15880643 -0.21087433 -0.20383923 0.15704967 -0.068211235 0.17402375 -0.026727462 -0.057658885
-0.02568283 -0.07219318 -0.046589635 -0.04752468 0.18114285 0.0031662886 -0.027182983 0.052410446
0.041107748 0.0061945436 0.19617608 -0.08145483 0.04649957 -0.13206066 0.031143837 -0.030031212
-0.08919528 -0.015900733 -0.10319295 0.09322107 -0.09743563 -0.01659444 0.078774214 -0.021117073
0.016828805 0.18759052 -0.16030656 -0.28954118 -0.0755618 0.06910557 -0.057939243 -0.055174377
0.1284881 -0.04841029 -0.20543724 -0.12737744 0.05659111 -0.023568286 -0.06494317 -0.0326455
0.114922695 -0.038546596 -0.09361778 0.06382764 -0.093908 0.014246465 -0.064529225 0.051199634
00000000: a59c 44bd 37f5 bbbd c741 5f3e 2afd cd3e
00000010: 49ac 06be 2df9 35be 750c 35be d95c 01bf
00000020: b401 953e 9477 8bbe 27a6 833d 62a9 50be
00000030: f0ac 3abe d920 92be 3188 5fbd fc60 45bd
00000040: eae7 1abe 4a8d 79be d908 94bc e5ca 0ebe
00000050: 4bbf a9be fdf7 87be 47a1 cd3b 5ffd 773d
00000060: 0e21 1fbe d84e 01bd 97bc 84be b40f d2bd
00000070: 69ce 4cbd 1130 8bbe 76e7 bbbb 455a 003b
00000080: 51f7 82be 5d12 3fbe b50d 80be a59e 2b3c
00000090: e814 36be c9a3 143e c04c 383e fe1a cdbd
000000a0: d3c7 bdbe 7bfe dfbd fced 4e3d 9473 0f3f
000000b0: dacb 1abe 8ee0 74be d443 28be 8ef0 babd
000000c0: 22be 0ebc 488b 28be 9883 16be a144 8dbd
000000d0: 7991 75be 87e4 b9be 84ed 943d 49a3 0c3e
000000e0: 1f40 50be 8bc9 60be ba04 b0be ab37 c03c
000000f0: 7c8f 1c3e 5fcc 213d c416 41be 8afc 4e3c
00000100: 5d28 0cbe 3e27 4a3e ae44 52be c83b abbd
00000110: eca9 dd3c 15a8 303e 8c01 38bd 1518 c23d
00000120: eb79 f3bb 0fe5 00bc c4d3 cbbe 6526 cb3e
00000130: aeb5 4cbe ea29 8b3d 660c b13d c985 aa3d
00000140: e3d6 fdbb c785 513d 8e3a 3dbe 7066 35bd
00000150: e139 bbbd 57bf 98bd 55bd 163d efbb 45be
00000160: aa59 c13c dadd 163d b44e 2abe 9f60 d0ba
00000170: f1c2 a93d 33ca 4ebe b3cb 5a3d 73e7 aebd
00000180: a0e6 dabe 89c0 c53d 9007 a1bd 3f56 96bd
00000190: 1df8 a3bd ba3d 833e 4500 793d 98de 77bd
000001a0: d441 0bbe 21d0 c8bd a9b0 9cbd 7c6d aebe
000001b0: 02d6 2a3d 545d 49be 36af 1dbe eee2 393d
000001c0: a144 58be 67bc b0bc 0487 1f3e 45cc fabd
000001d0: f7a7 b9bc 9b8c 7d3d 7462 88bd 5f61 963e
000001e0: f202 b0bd 638b 92be cab5 213e 540e 913d
000001f0: 4683 163d 666a 173e 6e92 b63c 6a2e f4bd
00000200: a2a0 b33d 33ee 16be cf1c b73d 5613 17be
00000210: edd0 c63e 1782 e23d a943 ecbe e20b 133e
00000220: ce81 113d 143f b0bf 1788 873e 3be1 7cbe
00000230: 7542 dfbd bae5 76be 3843 923e f06a 4dbd
00000240: df6a e1bd a785 9c3d f4fd 15bd 49ce 0fbd
00000250: 0309 87be 370b 343d b899 3ebd 680f 94be
00000260: cd56 1dbd 2ba6 443d 3419 22bb d811 c53d
00000270: 2bfb debc 311a 5d3d d0dd eb3c 3bb3 923a
00000280: d694 a4be ef16 88be d60a cdbd 6c46 963d
00000290: f7bc fb3d 9d4f c63d 2f77 1bbe 78a6 dc3d
000002a0: 22ad b33d b9af cbbc 62bc debd 03cf 1abe
000002b0: 8275 e2be 81e4 32bc 6292 893d 0b8a c9bc
000002c0: bcff 8cbd 1b5a 87be 6c73 32bd 9687 a9bc
000002d0: 9249 04be 536f 4c3e f755 18be 868c 5f3d
000002e0: 4922 fe3c 31c4 96be 29d6 133e 4ac7 053e
000002f0: 5875 6cbe 0d06 ea3c a76c 6b3d 53f7 e03d
00000300: 19a4 c1bd 432f 35be f8a1 953d 68ce 39be
00000310: 0fc7 cebd c3ba 5ebd 6c7a 8fbe 8fef 99bd
00000320: 279e 22be 71ef 57be 3bbb 50be a1d1 203e
00000330: 55b2 8bbd 4833 323e 8df3 dabc b92b 6cbd
00000340: cc64 d2bc 05da 93bd c6d4 3ebd 3da9 42bd
00000350: 837d 393e 8281 4f3b d9ae debc 56ac 563d
00000360: 9960 283d 99fb ca3b 62e2 483e cad1 a6bd
00000370: 5576 3e3d e93a 07be 5c21 ff3c 0404 f6bc
00000380: 04ac b6bd 4142 82bc d356 d3bd b0ea be3d
00000390: 558c c7bd 10f1 87bc 6054 a13d b6fd acbc
000003a0: 90dc 893c bb17 403e 6727 24be be3e 94be
000003b0: 25c0 9abd 3987 8d3d b351 6dbd 87fe 61bd
000003c0: 6292 033e de49 46bd 245e 52be 3b6f 02be
000003d0: 14cc 673d 4712 c1bc ed00 85bd 4ab7 05bd
000003e0: 975c eb3d 09e3 1dbd aeba bfbd 11b8 823d
000003f0: d652 c0bd 016a 693c e627 84bd b5b6 513d

fc2.bias f4 [64]
-0.053813457 -0.13981523 -0.16840257 -0.19610836 -0.2401006 -0.1928469 -0.15490054 0.13770403
-0.090326324 0.03866944 -0.1322043 -0.16958512 -0.14386144 -0.32876614 -0.10060922 -0.3519299
-0.3753854 -0.16229801 -0.22239748 -0.25384137 -0.08701203 0.61055684 -0.14050566 -0.4424543
-0.42704 -0.38853064 -0.011520467 -0.26237833 0.22799672 -0.34773996 -0.24291319 -0.19953904
0.11530515 0.22329603 -0.067407265 -0.12737374 0.42512777 -0.32391238 -0.22465265 -0.15695742
-0.23447451 0.608898 -0.2323295 -0.10188378 -0.10982772 -0.15306152 0.005940283 -0.3195886
-0.037174836 -0.23102921 -0.024162896 0.39787674 -0.24877818 0.13462278 -0.17631897 -0.14785281
-0.2510621 -0.47506368 0.33643222 0.10051693 -0.013502663 0.09476317 -0.27508983 -0.4098624
00000000: 806b 5cbd b92b 0fbe b971 2cbe a1d0 48be
00000010: efdc 75be a879 45be 3f9e 1ebe 4902 0d3e
00000020: 02fd b8bd d963 1e3d 9060 07be b9a7 2dbe
00000030: 6a50 13be 0954 a8be 350c cebd 2830 b4be
00000040: 8432 c0be 7331 26be 2abc 63be 7ff7 81be
00000050: 5d33 b2bd 744d 1c3f b7e0 0fbe 5f89 e2be
00000060: fda4 dabe 7ded c6be 57c0 3cbc 7456 86be
00000070: f977 693e f90a b2be 3cbe 78be f653 4cbe
00000080: 1b25 ec3d b7a7 643e d20c 8abd 436e 02be
00000090: 59aa d93e d8d7 a5be 580b 66be 72b9 20be
000000a0: 161a 70be bde0 1b3f c9e7 6dbe 71a8 d0bd
000000b0: 5bed e0bd 29bc 1cbe b5a6 c23b 1ea1 a3be
000000c0: a444 18bd ec92 6cbe 44f1 c5bc 80b6 cb3e
000000d0: b5bf 7ebe 8eda 093e f68c 34be ba66 17be
000000e0: 368b 80be 8c3b f3be d840 ac3e d2db cd3d
000000f0: 463a 5dbc 3113 c23d 93d8 8cbe 7cd9 d1be

fc3.weight f4 [4, 64]
0.49898025 0.043395683 0.30559352 -0.2910077 0.0022841503 0.0024733697 -0.20723198 -0.5575331
-0.024787607 0.038785394 -0.38353238 0.04268396 0.050669093 0.05027708 0.14248605 0.26003093
0.36593837 -0.012708228 -0.12475359 0.01639731 0.034517605 0.28089207 -0.6228893 -0.42154798
-0.15047415 -0.8644138 0.19503796 0.23234056 0.44241062 -0.58855724 -0.09846181 0.018978916
0.17968248 0.28175828 0.27048025 -0.10903645 0.30685133 0.21067713 0.10425142 -0.3683616
0.011953805 0.26206207 -0.30438152 0.20522691 0.080122255 0.058503307 0.0028070789 -0.11219594
-0.041801866 0.11408534 0.16424575 0.2320748 0.12437056 0.051016808 -0.045960374 -0.012505172
-0.15233137 0.119730495 0.2911228 0.14423354 0.48650047 -0.024285208 -0.093226895 0.18155652
0.3413702 0.22797355 -0.15335412 -0.052085336 0.051500034 -0.27881533 -0.37485003 0.16399318
-0.021722851 0.35550967 -0.16674612 0.3049269 0.19669123 -0.15433122 0.13724743 0.16337863
-0.23593496 -0.15839566 -0.0692342 0.06749528 0.09068142 0.24618003 -0.01309661 -0.30795676
-0.18104205 -0.2814836 0.19280085 -0.026377073 0.34824082 -0.12023665 -0.0784559 0.07283675
0.2990004 0.086330995 -0.07160331 0.06864171 0.27342087 -0.32994002 0.047346514 0.25085613
-0.06561316 0.27457103 -0.048760135 0.0002526917 0.026768312 0.08313808 0.029691378 -0.14582609
0.13815264 -0.028749933 0.21895018 0.25739574 -0.02578779 0.28901935 0.15846017 0.00780107
-0.031528994 0.0010639618 0.22315185 0.03911953 0.5200513 -0.008301259 0.12782744 0.19404863
0.20623466 0.35568544 0.2607075 0.20608598 0.32766733 0.056000672 0.29288307 0.24178688
0.26476702 -0.06259796 0.19247021 0.12864074 0.058495544 -0.18744263 0.19825675 -0.014857781
-0.21502931 0.019179106 -0.6129393 0.1245705 0.41008464 0.4130858 -0.8868673 0.15261255
0.12751573 -0.2358495 0.35615152 -0.34101304 0.36900717 0.29530293 0.0775123 -0.080763265
-0.15765652 -0.11464046 0.09905745 -0.008162676 0.25535727 0.041068215 -0.14777546 0.06764875
-0.47737405 0.38122284 -0.11677644 0.06383027 0.11579709 -0.14563322 0.14774232 0.03699156
0.14744227 -0.0056760334 0.0042523155 0.2633732 -0.25406188 0.4748719 0.112158 0.054941203
0.016897928 0.023077818 0.15754803 -0.39072874 0.27647686 0.19364952 -0.2496995 -0.20042911
0.45351914 0.34861806 -0.6116471 0.15112393 0.3285358 0.07500965 -0.56247914 0.30481818
0.38606775 -0.15313464 -0.4914452 -0.11319878 0.034387477 -0.12676127 0.09615828 0.22413598
-0.3675821 -0.054206878 -0.47353998 0.05026435 -0.36929706 0.36673892 0.38306817 0.2640499
-0.040275715 -0.34326404 0.038202733 -0.05713509 0.08644337 0.0417085 0.10626001 0.024897771
0.30484083 -0.030339856 0.15541796 0.5220502 0.20581746 -0.81114733 0.04871232 0.20519388
-0.05126362 0.4192512 0.05800491 -0.5293289 0.43558782 -0.2548333 0.10064439 -0.29622042
0.11329364 -0.13023573 0.07467684 0.26132593 -0.11030476 0.12209191 0.073839754 0.10850725
-0.8125534 -0.36786866 0.21454322 -0.20034099 0.44391343 0.3364057 0.31634733 -0.078184724
00000000: 577a ff3e acbf 313d c176 9c3e f6fe 94be
00000010: afb1 153b 4218 223b 9f34 54be 7dba 0ebf
00000020: 610f cbbc 6fdd 1e3d 5b5e c4be 60d5 2e3d
00000030: 658a 4f3d 57ef 4d3d dde7 113e c622 853e
00000040: 465c bb3e 2c36 50bc cf7e ffbd a753 863c
00000050: 5562 0d3d 16d1 8f3e ac75 1fbf 23d5 d7be
00000060: e515 1abe 394a 5dbf 08b8 473e afea 6d3e
00000070: a583 e23e b0ab 16bf 58a6 c9bd ac79 9b3c
00000080: affe 373e 9f42 903e 637c 8a3e 814e dfbd
00000090: 9e1b 9d3e bfbb 573e c581 d53d e499 bcbe
000000a0: e4d9 433c 002d 863e e5d7 9bbe 0127 523e
000000b0: 2317 a43d 2aa1 6f3d f8f6 373b fcc6 e5bd
000000c0: 6f38 2bbd 93a5 e93d 0a30 283e 04a5 6d3e
000000d0: feb5 fe3d 00f7 503d f240 3cbd 7ee2 4cbc
000000e0: c1fc 1bbe 4335 f53d 0c0e 953e f5b1 133e
000000f0: 9716 f93e c6f1 c6bc beed bebd f4e9 393e
00000100: 13c8 ae3e e671 693e dd08 1dbe 6f57 55bd
00000110: b3f1 523d e2c0 8ebe 58ec bfbe d4ed 273e
00000120: 1ff4 b1bc 5d05 b63e 7fbf 2abe 611f 9c3e
00000130: 6d69 493e 0109 1ebe 978a 0c3e ba4c 273e
00000140: ef98 71be 7932 22be a9ca 8dbd f73a 8a3d
00000150: 2eb7 b93d 9e16 7c3e 2a93 56bc 82ac 9dbe
00000160: 1663 39be 9e1e 90be 966d 453e bb14 d8bc
00000170: 9f4c b23e a23e f6bd 7dad a0bd 6f2b 953d
00000180: 9516 993e 4ece b03d c2a4 92bd 0694 8c3d
00000190: d2fd 8b3e e6ed a8be 6bee 413d 3770 803e
000001a0: 3160 86bd 9394 8c3e b5b8 47bd b57b 8439
000001b0: 3849 db3c 4c44 aa3d 553b f33c 6f53 15be
000001c0: e377 0d3e fb84 ebbc 7a34 603e 60c9 833e
000001d0: ea40 d3bc 58fa 933e 6243 223e 1ea0 ff3b
000001e0: 8c24 01bd a274 8b3a eb81 643e cd3b 203d
000001f0: 1522 053f 0102 08bc 32e5 023e afb4 463e
00000200: 2e2f 533e 671c b63e 747b 853e 3408 533e
00000210: 03c4 a73e f660 653d c5f4 953e fb96 773e
00000220: 8b8f 873e 5c33 80bd e916 453e 66ba 033e
00000230: 0699 6f3d f6f0 3fbe d103 4b3e 0d6e 73bc
00000240: a530 5cbe 801d 9d3c 97e9 1cbf d11e ff3d
00000250: 9df6 d13e fb7f d33e bc09 63bf 7746 1c3e
00000260: 7c93 023e 8882 71be 7e59 b63e 4399 aebe
00000270: 82ee bc3e f231 973e c5be 9e3d 3667 a5bd
00000280: b670 21be 9ec8 eabd a2de ca3d bfbc 05bc
00000290: 30be 823e 2537 283d 7352 17be 6e8b 8a3d
000002a0: 5f6a f4be a42f c33e 7c28 efbd 72b9 823d
000002b0: 0627 ed3d e020 15be c349 173e 7684 173d
000002c0: 1bfb 163e 05fe b9bb 0257 8b3b dad8 863e
000002d0: 6614 82be 6922 f33e 18b3 e53d 070a 613d
000002e0: 866d 8a3c b10d bd3c 4554 213e 990d c8be
000002f0: 608e 8d3e 0f4c 463e 3ab1 7fbe 4a3d 4dbe
00000300: a933 e83e 117e b23e e894 1cbf 3bc0 1a3e
00000310: d835 a83e a99e 993d a2fe 0fbf 2111 9c3e
00000320: acaa c53e 54cf 1cbe b59e fbbe c3d4 e7bd
00000330: e2d9 0c3d b5cd 01be a2ee c43d e783 653e
00000340: b933 bcbe 0808 5ebd d573 f2be fee1 4d3d
00000350: 8114 bdbe 34c5 bb3e 8321 c43e 8c31 873e
00000360: 26f8 24bd 4ec0 afbe 787a 1c3d 7c06 6abd
00000370: 3909 b13d 88d6 2a3d d99e d93d 69f6 cb3c
00000380: 1914 9c3e 4a8b f8bc e325 1f3e 15a5 053f
00000390: d0c1 523e 5aa7 4fbf 9286 473d 581e 523e
000003a0: cdf9 51bd 18a8 d63e 8e96 6d3d 1982 07bf
000003b0: 5e05 df3e 8379 82be a51e ce3d 34aa 97be
000003c0: 7f06 e83d 845c 05be 2cf0 983d 83cc 853e
000003d0: 76e7 e1bd 530b fa3d 4c39 973d 0d39 de3d
000003e0: 8003 50bf 4859 bcbe 38b1 5b3e 3026 4dbe
000003f0: 9f48 e33e 5e3d ac3e 47f8 a13e 501f a0bd

fc3.bias f4 [4]
0.84958696 0.6861413 0.60598165 0.6771498
00000000: 887e 593f f5a6 2f3f 9d21 1b3f b059 2d3f
