winning_agent.pth (torch_old, 28399 bytes, 6 tensors)

fc1.weight f4 [64, 37]
0	0xbe3abdf7	-0.18236528
1	0xbe929d8b	-0.2863582
2	0xbe0f4fe9	-0.13995327
3	0xbe81e6bd	-0.25371352
4	0xbdfdd582	-0.12394239
5	0xbe1c6d44	-0.15276057
6	0x3c474b15	0.012163897
7	0xbd586df9	-0.052839253
8	0xbd8bdf81	-0.06829739
9	0x3e402cc4	0.18767077
10	0xbe9e3ec4	-0.3090726
11	0xbecb671c	-0.39727104
12	0x3d99c518	0.07508296
13	0xbefd96d1	-0.49529126
14	0xbeb7573d	-0.35808745
15	0xbd9f0710	-0.07765019
16	0xbe313f64	-0.17309338
17	0xbde9512b	-0.11392435
18	0xbe15d31f	-0.14631318
19	0xbe1f0997	-0.15531002
20	0xbb5631d4	-0.0032683508
21	0xbde698b9	-0.11259598
22	0x3d34bece	0.044127278
23	0xbe6be1e8	-0.23035395
24	0xbed5bd08	-0.41745782
25	0xbe62e23c	-0.22156614
26	0xbd06e2ca	-0.032931127
27	0xbec209ae	-0.3789801
28	0x3d69cdd3	0.057081055
29	0xbe188de4	-0.14897877
30	0xbdf4564f	-0.119305246
31	0xbcb03855	-0.021511236
32	0xbeab6159	-0.33472708
33	0xbe7b2868	-0.24527133
34	0xbeb95f0a	-0.36205322
35	0xbdbeba30	-0.09312856
36	0xbb8c8771	-0.004288607
37	0x3d5d374e	0.05400782
38	0xbd914f42	-0.07095195
39	0xbd4e18a6	-0.050316475
40	0xbe3557b6	-0.1770924
41	0xbea43183	-0.32069024
42	0xbd809315	-0.06278054
43	0xbe869938	-0.26288772
44	0xbe558b06	-0.20853814
45	0xbdb8a9fe	-0.090167984
46	0xbecd1099	-0.40051726
47	0x3e04ab94	0.12956077
48	0xbe30d87d	-0.17270084
49	0xbe84c7f1	-0.25933793
50	0xbc39de43	-0.011344495
51	0x3cec77e5	0.028865764
52	0x3c3ae49e	0.011407046
53	0xbd5bb01c	-0.053634748
54	0xbe702359	-0.23450984
55	0xbdbc43dc	-0.09192631
56	0xbe98a073	-0.29809913
57	0xbe4fd833	-0.20297317
58	0xbe4cb258	-0.19989908
59	0xbec6f6f0	-0.38860273
60	0x3dab186b	0.08354267
61	0xbe9027ee	-0.28155464
62	0xbe2ab92f	-0.16672204
63	0x3e36be72	0.17846087
64	0xbe3c9de7	-0.1841961
65	0xbe13fedd	-0.14452691
66	0xbe5b8f07	-0.2144128
67	0xbd9f001b	-0.07763692
68	0x3ddb5314	0.10709205
69	0x3d927915	0.07152001
70	0xbeb170f4	-0.3465649
71	0xbeb03e3f	-0.3442249
72	0x3d0934a6	0.033497475
73	0xbc53a846	-0.0129185375
74	0x3d996000	0.07489014
75	0x3dc00c9a	0.093774036
76	0xbc4baa7c	-0.012430783
77	0xbe26f9e5	-0.16306265
78	0xbd91e0f5	-0.07122985
79	0xbddaf7a8	-0.10691768
80	0xbe855192	-0.26038796
81	0x3c694033	0.014236498
82	0x3dcc879b	0.09986802
83	0xbe9fb8f7	-0.31195804
84	0xbe003d4f	-0.12523387
85	0xbdc7896e	-0.097430095
86	0xbcc55754	-0.024089493
87	0xbe7c8cec	-0.24663132
88	0xbcc4f812	-0.02404407
89	0xbe54f77b	-0.20797531
90	0x3d4ef953	0.050530743
91	0xbd16395f	-0.036675807
92	0x3e24104d	0.16021843
93	0x3c82f0ca	0.015983958
94	0xbe1056a7	-0.14095555
95	0xbe42e496	-0.19032511
96	0x3d3e7cac	0.046505615
97	0xbdf462df	-0.11932921
98	0xbe792ea6	-0.24334201
99	0xbe0f9e91	-0.14025332
100	0x3e08d4de	0.13362452
101	0x3cfd3488	0.030908838
102	0xbe349dcb	-0.17638318
103	0xbd0cc693	-0.034369063
104	0xbe0d20f3	-0.137821
105	0xbe0d2c75	-0.1378649
106	0xbe3bd06d	-0.18341227
107	0xbe84647c	-0.25857913
108	0xbe2ebca3	-0.17064147
109	0x3b24e976	0.0025163568
110	0xbc3ae240	-0.011406481
111	0x3d1c9468	0.03822747
112	0xbeeabd22	-0.45847422
113	0xbc9c320f	-0.019066839
114	0xbe0f5cfc	-0.14000314
115	0xbf217f9e	-0.63085353
116	0xbe033171	-0.12811829
117	0xbea29e4e	-0.31761402
118	0x3e9cae1c	0.30601585
119	0xbe1a81af	-0.15088533
120	0xbe99077a	-0.29888517
121	0xbdb78183	-0.08960249
122	0xbe62a65a	-0.2213377
123	0xbd274d9e	-0.040845506
124	0xbf07a3a8	-0.52984095
125	0xbee669f3	-0.45002708
126	0xbe0af930	-0.1357162
127	0xbea7e299	-0.32790068
128	0xbf2e398a	-0.6805655
129	0xbe03d92e	-0.12875816
130	0xbf271f43	-0.65282077
131	0x3cfee7b2	0.03111634
132	0xbe51125c	-0.2041716
133	0xbe2e7db0	-0.17040133
134	0xbee1c34c	-0.44094312
135	0xbf239954	-0.63905835
136	0xba9c05b9	-0.0011903561
137	0xbe30e507	-0.17274867
138	0xbe4a5fba	-0.1976308
139	0xbe723125	-0.2365156
140	0xbd445d8d	-0.04794078
141	0xbd82dce2	-0.06389786
142	0xbd18c0f1	-0.03729338
143	0xbe2fa1cd	-0.17151566
144	0xbeb87cd2	-0.3603273
145	0xbea350b6	-0.31897515
146	0x3ea30e9b	0.3184708
147	0xbd56fbc8	-0.05248621
148	0xbdabd555	-0.08390299
149	0xbe3e61b9	-0.18591966
150	0xbf1e6270	-0.61868954
151	0xbefa3a9e	-0.48872846
152	0xbf05e7ed	-0.52307016
153	0xbf115957	-0.56776947
154	0x3e2d0305	0.16895683
155	0xbbe3be67	-0.006950188
156	0xbedf0e13	-0.43565425
157	0xbce3a3c7	-0.027788056
158	0xbdcabae7	-0.0989893
159	0xbf27498a	-0.65346587
160	0xbea868fa	-0.3289259
161	0xbccf9137	-0.025337799
162	0xbebae9e1	-0.3650656
163	0xbf1ffeca	-0.6249815
164	0x3dec2148	0.115297854
165	0xbe8cc7b9	-0.27496126
166	0xbf2565ab	-0.6460826
167	0x3dcc2f35	0.099699415
168	0xbf199552	-0.5999347
169	0xbe59aa9a	-0.21256486
170	0x3d9795b0	0.074015975
171	0xbef493d0	-0.47769022
172	0xbd87ac74	-0.0662469
173	0xbeb194ee	-0.34683937
174	0xbf28ec5e	-0.6598567
175	0xbe84def3	-0.25951347
176	0xbf0dd44a	-0.5540205
177	0xbf2dba60	-0.6786251
178	0xbd69539b	-0.056964498
179	0xbebbe041	-0.3669453
180	0xbe26ad1c	-0.16276973
181	0xbe80cd3b	-0.25156578
182	0x3d835459	0.064125724
183	0x3e816837	0.25274822
184	0xbd0fb8db	-0.0350884
185	0xbcb44fa1	-0.022010626
186	0xbe06dcc3	-0.13170151
187	0xbeb4b0f5	-0.35291258
188	0xbd602d30	-0.054730594
189	0xbf04236c	-0.5161655
190	0xbbc55de0	-0.0060231537
191	0xbe0cb406	-0.13740548
192	0xbe92e803	-0.28692636
193	0xbd7d3c9d	-0.061825383
194	0xbf0dbe72	-0.5536872
195	0xbdcf99d7	-0.101367645
196	0xbe99c05d	-0.30029574
197	0xbe39738c	-0.18110484
198	0xbe464e45	-0.19365795
199	0xbe8f230f	-0.27956435
200	0x3d856680	0.06513691
201	0xbea40309	-0.32033566
202	0xbec193d3	-0.37808093
203	0xbed424ea	-0.41434413
204	0xbf3640e4	-0.71192765
205	0x3dadaa7e	0.084797844
206	0xbe948b59	-0.29012564
207	0x3a345e5d	0.00068805163
208	0xbeb9e454	-0.36307013
209	0xbe51e015	-0.20495637
210	0xbe3b9e91	-0.18322207
211	0xbe9036e4	-0.28166878
212	0xbdecbdc3	-0.11559632
213	0xbe0056a5	-0.12533052
214	0xbf2cf433	-0.6756012
215	0xbd9e4159	-0.07727308
216	0xbe5311af	-0.20612215
217	0xbe85ec08	-0.2615664
218	0xbd9814de	-0.07425855
219	0xbee93dcb	-0.45554957
220	0x3e4007b4	0.18752939
221	0xbcf577b1	-0.0299643
222	0x3d7f6eea	0.062361635
223	0x3e1a92be	0.1509504
224	0x3de32e91	0.11092866
225	0xbb18d3ca	-0.0023319595
226	0xbbb8a69c	-0.0056350958
227	0x3dde71ec	0.108615726
228	0x3e7da748	0.24770844
229	0x3dc66523	0.09687259
230	0x3ebb0bbb	0.36532387
231	0x3e5fa0af	0.2183864
232	0x3ddab319	0.106786914
233	0x3e3b2bf4	0.18278486
234	0x3e2aa8d6	0.16665968
235	0x3e21e41a	0.1580967
236	0x3da64ac8	0.08119732
237	0x3d8bbc2a	0.06822999
238	0x3e0ef902	0.13962176
239	0x3db38130	0.08764875
240	0x3dc48ead	0.09597526
241	0xbdbd15fb	-0.09232708
242	0x3de1377f	0.10996913
243	0x3e31603b	0.17321865
244	0x3e4c8cfa	0.19975653
245	0x3e19f6e1	0.15035583
246	0x3d1c26a7	0.0381228
247	0xbd0d1455	-0.03444322
248	0x3debe64d	0.11518536
249	0x3d6d6f71	0.057967607
250	0x3e35eb3e	0.17765519
251	0x3cfe87c6	0.031070601
252	0x3f1d64cb	0.6148192
253	0xbf838f2d	-1.0278069
254	0xbf8bf4a5	-1.0934035
255	0xbf9f98e3	-1.2468532

fc1.bias f4 [64]
0	0xbe22f565	-0.15913923
1	0xbe6585a3	-0.2241426
2	0xbe6fefe7	-0.23431359
3	0xbeacbdce	-0.3373856
4	0xbcc50d8e	-0.024054315
5	0xbe947173	-0.28992805
6	0xbd230fc5	-0.03980996
7	0xbe5731bc	-0.21015066
8	0xbe9dd9bd	-0.30830184
9	0xbe9c3f0a	-0.30516845
10	0xbe76ec8d	-0.24113674
11	0x3ce24995	0.027622977
12	0xbdcf64f0	-0.10126674
13	0x3dad0f0d	0.08450136
14	0xbe8b69b6	-0.2722909
15	0xbe8b8e8a	-0.27257186
16	0xbe94a630	-0.2903304
17	0xbe6af77c	-0.2294597
18	0xbe5f11c5	-0.21784122
19	0xbeaf5ba3	-0.342496
20	0xbcffa355	-0.031205812
21	0xbe3078dc	-0.17233604
22	0xbe1a28b2	-0.15054587
23	0xbe93c359	-0.28859976
24	0xbe966626	-0.29374808
25	0xbde7f4d0	-0.11325991
26	0xbc79ab55	-0.015238603
27	0xbe90da46	-0.2829153
28	0xbdc9c623	-0.09852245
29	0xbe21186c	-0.15731972
30	0xbe360a52	-0.17777374
31	0xbe8d8da4	-0.27647126
32	0x3e2b4724	0.16726357
33	0xbeab98cc	-0.33515012
34	0xbea428b1	-0.32062295
35	0xbdf3f58b	-0.11912068
36	0xbe7f0d6e	-0.24907467
37	0xbe2ce604	-0.16884619
38	0xbe968328	-0.2939694
39	0xbea80e75	-0.3282353
40	0xbef53ad5	-0.47896448
41	0xbe8153d5	-0.2525927
42	0xbd9e744e	-0.07737027
43	0x3e18cac5	0.149211
44	0x3e700c0f	0.234421
45	0xbeac874c	-0.33696973
46	0xbe468f83	-0.19390683
47	0xbe92bd78	-0.28660178
48	0xbe9ef3bb	-0.31045327
49	0xbe71d50b	-0.23616426
50	0x3e079755	0.13241322
51	0xbe41c8ee	-0.18924305
52	0xbe006016	-0.12536654
53	0xbeb0cd2a	-0.34531528
54	0xbea66965	-0.32502285
55	0xbead6e7b	-0.33873352
56	0xbe278555	-0.16359456
57	0xbe97e225	-0.29664722
58	0xbeb3da5d	-0.35127535
59	0xbe5c8036	-0.21533284
60	0xbeb59712	-0.3546682
61	0xbe655fc3	-0.22399811
62	0x3cff9078	0.031196818
63	0xbe4f2e7a	-0.20232573

fc2.weight f4 [64, 64]
0	0xbd449ca5	-0.04800095
1	0xbdbbf537	-0.091776304
2	0x3e5f41c7	0.21802436
3	0x3ecdfd2a	0.4023221
4	0xbe06ac49	-0.13151659
5	0xbe35f92d	-0.17770834
6	0xbe8ac46b	-0.2710298
7	0xbf015cd9	-0.505323
8	0x3e9501b4	0.29102862
9	0xbe95305e	-0.29138464
10	0x3d83a627	0.064281754
11	0xbe704167	-0.23462449
12	0xbe3aacf0	-0.18230033
13	0xbecfb62d	-0.40568677
14	0xbe231815	-0.15927155
15	0xbd4560fc	-0.048188195
16	0xbe1ae7ea	-0.1512753
17	0xbe798d4a	-0.24370304
18	0xbc9408d9	-0.018070625
19	0xbe0ecae5	-0.13944586
20	0xbeb6214f	-0.35572287
21	0xbe87f7fd	-0.26556388
22	0x3bcda147	0.0062753293
23	0x3dcfafd7	0.10140961
24	0xbe1f210e	-0.15539953
25	0xbd014ed8	-0.031569332
26	0xbe795687	-0.24349414
27	0xbdd20fb4	-0.102569014
28	0xbd4cce69	-0.050001536
29	0xbe8b3011	-0.2718511
30	0xbbbbe776	-0.0057343794
31	0x3b005a45	0.0019585055
32	0xbe2f68fe	-0.17129895
33	0xbe3f125d	-0.18659349
34	0xbe718fa2	-0.23589948
35	0x3c2b9ea5	0.0104748355
36	0xbe3614e8	-0.17781413
37	0x3ca2d94b	0.019879004
38	0x3e384cc0	0.17998028
39	0xbdcd1afe	-0.10014914
40	0xbebdc7d3	-0.37066516
41	0xbddffe7b	-0.1093721
42	0xbd3ec058	-0.046570152
43	0x3f079bc0	0.5297203
44	0xbd2d9bef	-0.042385038
45	0xbe74e08e	-0.23913786
46	0xbe2843d4	-0.16432124
47	0xbdfd943b	-0.12381788
48	0xbc0ebe22	-0.008712323
49	0xbe288b48	-0.16459382
50	0xbdd2e549	-0.10297639
51	0xbd8d44a1	-0.068978556
52	0xbe759179	-0.23981275
53	0xbeb9e487	-0.36307165
54	0x3d94ed84	0.07271865
55	0x3e0ca349	0.13734163
56	0xbe50401f	-0.2033696
57	0xbe60c98b	-0.21951883
58	0xbeb004ba	-0.34378606
59	0x3d865e46	0.0656095
60	0x3e0200d9	0.12695636
61	0x3d21cc5f	0.039501544
62	0xbe5e5c13	-0.21714811
63	0x3c4efc8a	0.012633452
64	0xbe0c285d	-0.13687272
65	0x3e4a273e	0.19741532
66	0xbe5244ae	-0.20534012
67	0xbdab3bc8	-0.08361012
68	0x3cdda9ec	0.027058564
69	0x3e30a815	0.17251618
70	0xbe169540	-0.14705372
71	0x3dc21815	0.094772495
72	0xbbf379eb	-0.0074303052
73	0xbdc15de9	-0.0944174
74	0xbecbd3c4	-0.39810002
75	0x3ea82127	0.32837793
76	0xbe4cb5ae	-0.1999118
77	0xbd250d6c	-0.040296003
78	0xbdc905ba	-0.098155454
79	0x3daa85c9	0.08326299
80	0xbd26e2f8	-0.040743798
81	0x3d5185c7	0.05115297
82	0xbe3d3a8e	-0.18479368
83	0xbd356670	-0.044287145
84	0xbdbb39e1	-0.09141899
85	0xbd98bf57	-0.0745837
86	0x3d16bd55	0.036801655
87	0xbe5b88b0	-0.21438861
88	0x3cc159aa	0.023602325
89	0x3d16ddda	0.036832668
90	0xbe5c9c05	-0.21543892
91	0xbad0609f	-0.0015897936
92	0x3da9c2f1	0.08289135
93	0xbe4eca33	-0.2019432
94	0x3d5acbb3	0.05341692
95	0xbdaee773	-0.08540239
96	0xbece33af	-0.40273806
97	0x3dc5c089	0.09655864
98	0xbc607326	-0.0136993285
99	0xbd96563f	-0.07340669
100	0xbda3f81d	-0.08006308
101	0x3ea7fd20	0.32810307
102	0x3d790045	0.060791273
103	0xbd77de98	-0.060515016
104	0xbe0b41d4	-0.1359933
105	0xbdc8d021	-0.098053224
106	0x3ce8d3ac	0.028421246
107	0xbecb4e87	-0.3970835
108	0xbc82fbc3	-0.01598919
109	0xbe495d54	-0.19664508
110	0xbe1daf36	-0.15398869
111	0x3d39e2ee	0.045382433
112	0xbe5844a1	-0.2111993
113	0xbcb0bc67	-0.021574212
114	0x3d60bf8d	0.054870177
115	0xbdfacc45	-0.122459926
116	0xbcb9a7f7	-0.0226631
117	0x3d7d8c9b	0.06190167
118	0xbd886274	-0.066594034
119	0x3e96615f	0.29371163
120	0xbdb002f2	-0.08594312
121	0xbe928b63	-0.2862197
122	0x3e21b5ca	0.15792003
123	0xbd8b98e2	-0.068162695
124	0x3db780c1	0.08960105
125	0x3e176a66	0.14786682
126	0x3d662587	0.056188133
127	0xbdf42e6a	-0.11922915
128	0x3db3a0a2	0.08770873
129	0xbe16ee33	-0.14739303
130	0x3db71ccf	0.08941042
131	0xbe171356	-0.1475347
132	0x3ec6d0ed	0.38831273
133	0x3de28217	0.11059969
134	0xbeec43a9	-0.4614537
135	0x3e130be2	0.14360002
136	0x3d1181ce	0.035524182
137	0xbfaf540e	-1.3697526
138	0x3e878817	0.26471016
139	0xbe4b40be	-0.19848916
140	0xbddf4275	-0.109013475
141	0xbe76e5ba	-0.24111071
142	0x3e8fe306	0.28102893
143	0xbd4d6af0	-0.05015081
144	0xbde16adf	-0.11006712
145	0x3d9c85a7	0.0764268
146	0xbd15fdf4	-0.03661914
147	0xbd0fce49	-0.03510884
148	0xbe870903	-0.26374063
149	0x3d340b37	0.043956008
150	0xbd3e99b8	-0.046533316
151	0xbe940f68	-0.28918004
152	0xbd1d56cd	-0.038412858
153	0x3d44a62b	0.048010033
154	0x3ba2f097	0.004972528
155	0x3dc511d8	0.09622544
156	0xbcdefb2b	-0.027219376
157	0x3d5d1a31	0.053980056
158	0x3cebddd0	0.028792292
159	0x3a92b33b	0.0011192331
160	0xbec8d63d	-0.3922595
161	0xbe8816ef	-0.26579997
162	0xbdd9300e	-0.10604869
163	0x3d96466c	0.07337651
164	0x3dfbbcf7	0.122919016
165	0x3dc64f9d	0.09683154
166	0xbe1b772f	-0.15182184
167	0x3ddca678	0.10773939
168	0x3db3ad22	0.08773257
169	0xbccbafb9	-0.024864065
170	0xbddebc62	-0.10875775
171	0xbd9d83a9	-0.07691128
172	0xbee7eebe	-0.45299333
173	0xbc32e481	-0.010918737
174	0x3d899262	0.067173734
175	0xbcc98a0b	-0.024601957
176	0xbd8cffbc	-0.06884715
177	0xbe875a1b	-0.26435933
178	0xbd32736c	-0.043567106
179	0xbca98796	-0.020694535
180	0xbe044992	-0.1291869
181	0x3e4c6f53	0.19964342
182	0xbe1855f7	-0.14876543
183	0x3d5f8c86	0.054577373
184	0x3cfe2249	0.031022208
185	0xbe96c431	-0.29446557
186	0x3e13d629	0.14437164
187	0x3e05c74a	0.13064304
188	0xbe6c7558	-0.23091638
189	0x3cea060d	0.028567338
190	0x3d6b6ca7	0.057476666
191	0x3de0f753	0.10984673
192	0xbdc1a419	-0.09455127
193	0xbe352f43	-0.1769381
194	0x3d95a1f8	0.07306284
195	0xbe39ce68	-0.18145144
196	0xbdcec70f	-0.10096561
197	0xbd5ebac3	-0.05437733
198	0xbe8f7a6c	-0.28023088
199	0xbd99ef8f	-0.07516395
200	0xbe229e27	-0.15880643
201	0xbe7d9742	-0.24764732
202	0xbe50bb3b	-0.20383923
203	0x3dbc507e	0.0919504
204	0xbd8bb255	-0.068211235
205	0x3e323348	0.17402375
206	0xbcd5e84b	-0.026111742
207	0xbd6c2bb9	-0.057658885
208	0xbcd264cc	-0.02568283
209	0xbd93da05	-0.07219318
210	0xbd3ed4c6	-0.046589635
211	0xbd42a93d	-0.04752468
212	0x3e397d83	0.18114285
213	0x3b4f8182	0.0031662886
214	0xbcdeaed9	-0.027182983
215	0x3d56ac56	0.052410446
216	0x3d286099	0.041107748
217	0x3bcafb99	0.0061945436
218	0x3e0f5ddc	0.14000648
219	0xbda6d1ca	-0.08145483
220	0x3d3e7655	0.04649957
221	0xbe073ae9	-0.13206066
222	0x3cff215c	0.031143837
223	0xbcf60404	-0.030031212
224	0xbdb6ac04	-0.08919528
225	0xbc824241	-0.015900733
226	0xbdd356d3	-0.10319295
227	0x3dbeeab0	0.09322107
228	0xbdc78c55	-0.09743563
229	0xbc87f110	-0.01659444
230	0x3da15460	0.078774214
231	0xbcacfdb6	-0.021117073
232	0x3c89dc90	0.016828805
233	0x3e4017bb	0.18759052
234	0xbe242767	-0.16030656
235	0xbe943ebe	-0.28954118
236	0xbd9ac025	-0.0755618
237	0x3d8d8739	0.06910557
238	0xbd6d51b3	-0.057939243
239	0xbd61fe87	-0.055174377
240	0x3e039262	0.1284881
241	0xbd4649de	-0.04841029
242	0xbe525e24	-0.20543724
243	0xbe026f3b	-0.12737744
244	0x3d67cc14	0.05659111
245	0xbcc11247	-0.023568286
246	0xbd8500ed	-0.06494317
247	0xbd05b74a	-0.0326455
248	0x3deb5c97	0.114922695
249	0xbd1de309	-0.038546596
250	0xbdbfbaae	-0.09361778
251	0x3d82b811	0.06382764
252	0xbdc052d6	-0.093908
253	0x3c696a01	0.014246465
254	0xbd8427e6	-0.064529225
255	0x3d51b6b5	0.051199634

fc2.bias f4 [64]
0	0xbd1f5407	-0.038898494
1	0xbe2742db	-0.16334097
2	0xbe1a47f8	-0.15066516
3	0xbe84e811	-0.25958303
4	0xbea6c0bf	-0.3256893
5	0xbe4579a8	-0.1928469
6	0xbdaadc1a	-0.08342762
7	0x3e018ae4	0.12650639
8	0xbe2a78ea	-0.16647688
9	0xbd832af9	-0.06404681
10	0xbe005407	-0.12532054
11	0xbdca4cb6	-0.09877913
12	0xbe3041c2	-0.17212585
13	0xbea85409	-0.32876614
14	0xbd845124	-0.06460789
15	0xbebd07ed	-0.3692011
16	0xbeea071c	-0.4570855
17	0xbe263173	-0.16229801
18	0xbe5bdb2b	-0.21470325
19	0xbe81f77f	-0.25384137
20	0xbd80dbbe	-0.062919125
21	0x3f1ea548	0.6197095
22	0xbdd2771d	-0.10276625
23	0xbee41aa8	-0.44551587
24	0xbedaa4fd	-0.42704
25	0xbec03b76	-0.37545365
26	0xbd06d7ec	-0.032920763
27	0xbe865674	-0.26237833
28	0x3e53f0a9	0.20697273
29	0xbe7cf950	-0.2470448
30	0xbe78be3c	-0.24291319
31	0xbe4c53f6	-0.19953904
32	0x3de1dce2	0.11028458
33	0x3e7c3d94	0.24632865
34	0xbd007d53	-0.03136952
35	0xbe0a1a28	-0.1348654
36	0x3ee17b35	0.44039312
37	0xbed2ad0b	-0.41147646
38	0xbe660b58	-0.22465265
39	0xbe89c0c6	-0.26904887
40	0xbe9550d7	-0.29163238
41	0x3f1d9740	0.61558914
42	0xbe83f2be	-0.25771135
43	0xbde27493	-0.11057391
44	0xbddb9e6d	-0.10723577
45	0xbe10704d	-0.1410534
46	0xbd2119e8	-0.039331347
47	0xbea3a11e	-0.3195886
48	0xbdc4d973	-0.09611788
49	0xbe6c92ec	-0.23102921
50	0xbcebdfae	-0.028793182
51	0x3ed274de	0.41104788
52	0xbe7ebfb5	-0.24877818
53	0x3e008e74	0.12554342
54	0xbe348cf6	-0.17631897
55	0xbe1766ba	-0.14785281
56	0xbe763b99	-0.24046172
57	0xbef33b8c	-0.47506368
58	0x3eb832b9	0.35976198
59	0xbd5113d8	-0.051044315
60	0x3cf91248	0.030404225
61	0x3da6bc30	0.08141363
62	0xbe19ff88	-0.15038884
63	0xbed1d97c	-0.4098624

fc3.weight f4 [4, 64]
0	0x3efffece	0.49999088
1	0x3d382682	0.0449586
2	0x3ea601eb	0.32423338
3	0xbe94d8c0	-0.29071617
4	0x3d34e138	0.044160098
5	0x3b221842	0.0024733697
6	0xbe9330cd	-0.2874817
7	0xbf0c56d6	-0.5482
8	0xbc87245f	-0.016496835
9	0x3dd3f75b	0.10349914
10	0xbea612bf	-0.32436177
11	0x3def091f	0.116716616
12	0x3d21caf5	0.039500196
13	0x3d4def57	0.05027708
14	0x3dd9f9e4	0.10643366
15	0x3e8522c6	0.26003093
16	0x3ea76d9e	0.3270082
17	0xbc50362c	-0.012708228
18	0xbde86ce1	-0.11348892
19	0x3c8653a7	0.01639731
20	0x3e4591e8	0.1929394
21	0x3e94d8da	0.29071695
22	0xbf0eff98	-0.55858755
23	0xbec2eec4	-0.3807279
24	0xbe1a15e5	-0.15047415
25	0xbf6a274e	-0.91466224
26	0x3e394a01	0.18094636
27	0x3e6deaaf	0.23234056
28	0x3ef3085b	0.47467312
29	0xbf0226ce	-0.5084046
30	0xbdc9a658	-0.09846181
31	0x3c9b79ac	0.018978916
32	0x3e327552	0.17427567
33	0x3e989614	0.29802
34	0x3e445b83	0.19175534
35	0xbe431222	-0.19049886
36	0x3ea39003	0.3194581
37	0x3e4cd192	0.2000182
38	0x3dd581c5	0.10425142
39	0xbea87f5f	-0.32909676
40	0x3de9f6f1	0.114240535
41	0x3e8f501f	0.27990815
42	0xbea75dd6	-0.3268878
43	0x3e4fafde	0.20281932
44	0x3d89ce97	0.06728857
45	0x3d482da7	0.048871662
46	0xbda99b94	-0.08281627
47	0xbde5c6fc	-0.11219594
48	0xbc7264e6	-0.014794564
49	0x3de9a593	0.11408534
50	0x3e21f700	0.1581688
51	0x3e5d5f77	0.21618448
52	0x3dfeb5fe	0.12437056
53	0xbc99db7d	-0.018781418
54	0xbd3c40f2	-0.045960374
55	0xbc4ce27e	-0.012505172
56	0xbe0f3b29	-0.13987412
57	0x3df53543	0.119730495
58	0x3e963270	0.29335356
59	0x3d595eae	0.05306881
60	0x3f0a58b5	0.54041606
61	0xbb8ec8a8	-0.004357416
62	0xbdb8f915	-0.090318836
63	0x3e39e9f4	0.18155652
64	0x3eb00ffc	0.34387195
65	0x3e62e26e	0.22156689
66	0xbe1d08dd	-0.15335412
67	0xbd55576f	-0.052085336
68	0x3d691c48	0.056911737
69	0xbe8ec0e2	-0.27881533
70	0xbec974e4	-0.39346993
71	0x3ea82512	0.32840782
72	0xbcf5fa83	-0.03002668
73	0x3e4f9ccb	0.20274656
74	0xbe16f018	-0.14740026
75	0x3ed2cd8f	0.41172454
76	0x3e4672a1	0.19379665
77	0xbe1e0901	-0.15433122
78	0x3de0f343	0.109838985
79	0x3e329077	0.17437921
80	0xbe33a045	-0.17541607
81	0xbe223279	-0.15839566
82	0x3d7a8197	0.061158743
83	0x3d8a3af7	0.06749528
84	0x3e243603	0.16036229
85	0x3e6830af	0.22674821
86	0xbc2883fd	-0.010285375
87	0xbe964e40	-0.29356575
88	0xbe396316	-0.18104205
89	0xbe8e9357	-0.27846786
90	0x3e415cfc	0.18883127
91	0xbcd814bb	-0.026377073
92	0x3eb914f2	0.36148793
93	0xbb8aa148	-0.004230652
94	0xbda0ad7d	-0.0784559
95	0x3d952b6f	0.07283675
96	0x3e9a6473	0.30154762
97	0x3dfa033d	0.12207649
98	0x3d45b345	0.048266668
99	0x3d4c19fb	0.049829464
100	0x3e79aa0c	0.24381274
101	0xbed2dc21	-0.4118357
102	0x3d41ee6b	0.047346514
103	0x3e631ca3	0.22178893
104	0xbe195f66	-0.14977798
105	0x3e80f921	0.2519007
106	0xbdea4f8a	-0.11440952
107	0x39847bb5	0.0002526917
108	0xbda0d8d8	-0.0785386
109	0x3df75fcc	0.12078819
110	0x3d22f815	0.03978737
111	0xbe15536f	-0.14582609
112	0x3da1fd75	0.07909671
113	0xbceb84fb	-0.028749933
114	0x3e452b1d	0.19254728
115	0x3eb0a6b7	0.34502193
116	0xbcd340ea	-0.02578779
117	0x3ec3791a	0.3817833
118	0x3e224362	0.15846017
119	0x3bffa01e	0.00780107
120	0xbc8df1b3	-0.017327165
121	0x3a8b74a2	0.0010639618
122	0x3e673e40	0.2258234
123	0x3d12b446	0.035816453
124	0x3eeae629	0.45878723
125	0x3dfc724a	0.123264864
126	0x3e02e532	0.12782744
127	0x3e46b4af	0.19404863
128	0x3e7380ac	0.23779553
129	0x3e9cbba2	0.30611902
130	0x3e6aa5dd	0.22914834
131	0x3e286a85	0.16446884
132	0x3e6e22e7	0.23255502
133	0x3d6560f6	0.056000672
134	0x3eca67d9	0.39532354
135	0x3e0f05e9	0.13967098
136	0x3e878f8b	0.26476702
137	0xbd86c953	-0.06581368
138	0x3e13aea1	0.14422084
139	0x3d5692c6	0.052386068
140	0x3d6f9906	0.058495544
141	0xbe3ff0f6	-0.18744263
142	0x3e61ea7d	0.22062106
143	0xbc736e0d	-0.014857781
144	0xbea81713	-0.32830104
145	0x3c9d1d80	0.019179106
146	0xbf2fb029	-0.68628174
147	0x3dff1ed1	0.1245705
148	0x3ebb0593	0.3652769
149	0x3ed5d449	0.41763523
150	0xbf6d79e1	-0.927641
151	0x3e1c4677	0.15261255
152	0x3e02937c	0.12751573
153	0xbe343182	-0.1759701
154	0x3e9ed22d	0.31019726
155	0xbeae9943	-0.34101304
156	0x3eaa003b	0.332033
157	0x3e82ea65	0.25569454
158	0x3d9ebec5	0.0775123
159	0xbda56736	-0.080763265
160	0xbde34d1d	-0.110986926
161	0xbd89d897	-0.06730764
162	0x3e3888b7	0.18020903
163	0xbd0e397d	-0.034722794
164	0x3e8301ba	0.25587255
165	0x3d8cf0a5	0.06881837
166	0xbe175273	-0.14777546
167	0x3d5b7667	0.053579714
168	0xbf15a7dc	-0.5845926
169	0x3ec54978	0.38532615
170	0xbdde450c	-0.108530134
171	0x3d82b972	0.06383027
172	0x3d23e4e5	0.040013213
173	0xbdcaab34	-0.09895936
174	0x3e4ad46f	0.198076
175	0x3d178476	0.03699156
176	0x3e47c2e9	0.19507946
177	0xbbb9fe05	-0.0056760334
178	0x3cd1e79d	0.025623137
179	0x3e7b3631	0.24532391
180	0xbe821466	-0.25406188
181	0x3f012844	0.50452065
182	0x3de5b318	0.112158
183	0x3d610a07	0.054941203
184	0x3d0d1838	0.034446925
185	0x3cbd0db1	0.023077818
186	0x3e328603	0.17433934
187	0xbecd942e	-0.40152115
188	0x3e8db090	0.2767377
189	0x3da91500	0.082559586
190	0xbe56f31f	-0.20991181
191	0xbe4d3d4a	-0.20042911
192	0x3eccd2ab	0.40004477
193	0x3e7f549a	0.24934617
194	0xbf2fa3ca	-0.686093
195	0x3dd5dd27	0.10442572
196	0x3e923b95	0.28561082
197	0x3d999ea9	0.07500965
198	0xbf03af4b	-0.5143935
199	0x3e8d7ad5	0.27632776
200	0x3eaf4bcc	0.34237516
201	0xbdb540be	-0.08850239
202	0xbee6e08b	-0.45093188
203	0xbe03fe81	-0.12890054
204	0x3d6974f7	0.056996312
205	0xbe01cdb5	-0.12676127
206	0x3e13b314	0.14423782
207	0x3e6583e7	0.22413598
208	0xbebc33b9	-0.3675821
209	0xbd5e0808	-0.054206878
210	0xbf0777e5	-0.5291732
211	0x3d4de1fe	0.05026435
212	0xbec316d5	-0.38103357
213	0x3ec04fae	0.3756079
214	0x3ec0c6b8	0.3765161
215	0x3e8cc3a7	0.2749302
216	0xbd24f826	-0.040275715
217	0xbeb24bb1	-0.34823373
218	0x3d3d1aec	0.046168253
219	0xbd6a067c	-0.05713509
220	0x3d7b0b45	0.061290044
221	0x3daa5c9a	0.083184436
222	0x3dd99ed9	0.10626001
223	0x3ccbf669	0.024897771
224	0x3e976deb	0.29576048
225	0xbd9c49d0	-0.07631266
226	0x3e5cdcdd	0.21568628
227	0x3ef011f9	0.46888712
228	0x3e6ff7f1	0.23434426
229	0xbf479ded	-0.7797535
230	0x3d478692	0.04871232
231	0x3e591e39	0.21202935
232	0xbd51f9cd	-0.05126362
233	0x3edf0f00	0.43566132
234	0xbe11fb76	-0.14256081
235	0xbf0722bf	-0.52787393
236	0x3ed761b8	0.4206674
237	0xbe800a1b	-0.2500771
238	0x3df3435d	0.11878083
239	0xbe97aa34	-0.29622042
240	0x3d1297b6	0.035789214
241	0xbe055c84	-0.13023573
242	0x3d837611	0.06419004
243	0x3e936c35	0.28793493
244	0xbde1e776	-0.11030476
245	0x3d8d1703	0.06889155
246	0x3d97394c	0.073839754
247	0x3dde390d	0.10850725
248	0xbf4985bc	-0.7871969
249	0xbebc5948	-0.36786866
250	0x3e72ebdb	0.23722784
251	0xbe583651	-0.2111447
252	0x3ee42955	0.44562784
253	0x3ea42a50	0.32063532
254	0x3efb32e8	0.49062276
255	0xbda01f50	-0.078184724

fc3.bias f4 [4]
0	0x3f62a2e2	0.8852979
1	0x3f436d00	0.76338196
2	0x3f1c7da7	0.6112923
3	0x3f32efc7	0.6989712
